app/src/main/ml/model.tflite (tflite, 6936 bytes, 5 tensors)

sequential/dense_1/BiasAdd/ReadVariableOp f4 [16]
000000 74 9b e1 bf 17 d9 52 3f 02 68 c4 be b8 ac 82 3f
       -1.7625566 0.823625 -0.38360602 1.020896
000010 c3 40 fa 3e 07 68 c5 be 9e 41 07 3f 58 c4 b5 bf
       0.48877534 -0.3855593 0.528345 -1.4200544
000020 f6 75 0a bd 99 9c 35 3f 8d 4c 99 3f e8 71 f1 be
       -0.033803903 0.70942074 1.1976486 -0.47157216
000030 d4 98 8e 3f 02 13 84 3d 01 d5 8a bf a3 06 31 3f
       1.114039 0.06448938 -1.0846254 0.6915075

sequential/dense/BiasAdd/ReadVariableOp f4 [32]
000000 00 34 5c 3f 00 00 00 00 7b d6 2b 3e 00 00 00 00
       0.86016846 0.0 0.16781037 0.0
000010 4d 2d 6a bf b4 d6 37 40 00 00 00 00 72 97 bb 3f
       -0.91475374 2.8724794 0.0 1.4655592
000020 f5 e7 45 c0 00 00 00 00 00 00 00 00 1f 09 81 3f
       -3.0922825 0.0 0.0 1.0080909
000030 36 db f9 3e 58 1a 0c c0 e3 e4 a6 c0 b7 46 2e 3f
       0.48800057 -2.189108 -5.2154403 0.6807665
000040 ba 73 d2 bf 00 00 00 00 ac 0d f7 bb 00 00 00 00
       -1.6441567 0.0 -0.0075394716 0.0
000050 7d 04 06 3f e4 5e a8 bd 00 00 00 00 00 00 00 00
       0.523506 -0.08221224 0.0 0.0
000060 00 00 00 00 f1 0a 0f 3f 25 2b 2d 40 0a 74 00 be
       0.0 0.5587607 2.7057583 -0.12544265
000070 d7 bc 91 3f 4a d8 c5 3f 00 00 00 00 00 00 00 00
       1.1385754 1.5456631 0.0 0.0

sequential/dense/MatMul f4 [32, 20]
000000 2d 30 13 3e 91 1c 31 40 c5 3a e4 3f 53 5d 33 3e
       0.14373846 2.7673686 1.7830435 0.17516069
000010 e5 24 8c bf eb 03 c4 be bb 64 db be 48 e4 56 bf
       -1.0948759 -0.3828424 -0.4285029 -0.8394208
000020 ce 8e fa 3e 26 63 40 3f ae d2 5e bf 7c 98 28 3e
       0.48937076 0.7515129 -0.8704022 0.16464418
000030 bd 40 0d bf 28 51 c7 be 72 32 ed be a8 89 29 3b
       -0.5517691 -0.38929105 -0.4632755 0.0025869403
000040 9d b5 47 3f c9 0a 7c be 7f cf b6 3e ea e5 18 c0
       0.78011495 -0.24613489 0.35705182 -2.3890328
000050 f0 b2 77 be 68 18 be bd 38 41 3c 3e 9b f9 86 be
       -0.24189353 -0.09281999 0.18384254 -0.2636231
000060 f8 c3 a2 3e a4 46 cb 3d 3c 81 a4 bd 00 53 3d bd
       0.31790137 0.09925583 -0.08032462 -0.046221733
000070 82 18 dd bd 60 90 5e 3c c0 89 b7 3b a0 0d 58 bc
       -0.1079569 0.013584226 0.005601138 -0.013186842
000080 36 f5 8e 3e 18 17 7e bd e7 76 23 be 41 0e 0f be
       0.27921456 -0.062033743 -0.15963326 -0.13970281
000090 19 66 46 be 2e ce 0b 3e 40 4f 69 3e 50 c2 1c 3e
       -0.19374885 0.1365287 0.22784138 0.153085
0000a0 24 8b 0d bd c4 37 59 be 5f 82 24 c0 49 75 8b bf
       -0.034556523 -0.21212679 -2.5704572 -1.0895168
0000b0 8b 79 11 c0 c3 13 af bd 7e 20 96 3e d0 b5 97 3f
       -2.2730434 -0.08548691 0.29321665 1.185236
0000c0 8a 8f da 3e cc d8 32 3e 9d 09 cb be 72 f4 90 3e
       0.42687637 0.17465514 -0.39655772 0.28311497
0000d0 db c9 9d bd 3d f6 6c bd 12 b7 d2 be ea ea d0 be
       -0.077045165 -0.05785202 -0.41155297 -0.40804225
0000e0 2b 64 d1 3c 6b 78 0b bf ea 6c 30 3f 90 94 f0 be
       0.02556046 -0.5448062 0.6891619 -0.46988344
0000f0 ba be 73 be 6e 8d a6 be 9c 76 5f 3e cc 9f 9b 3e
       -0.23803225 -0.32529777 0.2182259 0.30395353
000100 d8 08 b3 3d 10 f0 33 3e 8c 8e a2 be 4d f2 17 be
       0.08741921 0.17572045 -0.3174938 -0.14838524
000110 58 3c 5e 3d 50 2d 5e bd 98 02 9c 3e 66 45 98 3e
       0.054256767 -0.054242432 0.3047073 0.29740447
000120 c0 af 78 be bc 03 0d 3e 04 d1 5b 3e 80 0b a1 3c
       -0.24285793 0.13770956 0.21466452 0.019658804
000130 d4 19 30 3e 62 df f9 bd dc 05 92 be b8 40 69 bd
       0.17197353 -0.1220081 -0.28520095 -0.056946486
000140 cc 23 3c 3e 80 42 65 bd d2 db 91 3f e0 6a b0 be
       0.1837303 -0.055971622 1.1395209 -0.3445654
000150 e8 16 8c 3d 08 25 1a 3d 7e e0 d4 bf d1 99 5f be
       0.068403065 0.037632972 -1.663101 -0.2183602
000160 e9 7e 4d bf cf 56 cd bf cc bc 76 be ab 53 46 bf
       -0.80271775 -1.6042117 -0.24095458 -0.7747142
000170 61 33 97 bf 7c 93 c2 be 92 b1 7e c0 a1 97 38 c0
       -1.1812555 -0.38003147 -3.979588 -2.8842547
000180 7a 3b 17 be e2 41 85 bd 85 53 d7 bf 32 45 22 c0
       -0.14768782 -0.06506707 -1.6822363 -2.5354733
000190 2d 8a 8a ba 93 21 ed bf 60 6f 98 3f e5 9a 1c 3f
       -0.0010569744 -1.8525871 1.1908989 0.6117385
0001a0 51 6a 83 c0 75 26 bb 3f 20 c6 8d bf 50 0c 23 c0
       -4.106728 1.4621111 -1.1076088 -2.5476265
0001b0 5f 84 9a bf 32 a5 5d 3f f2 e8 91 bf 79 0c 42 3f
       -1.2071646 0.86580193 -1.1399214 0.7580028
0001c0 b3 68 c9 be cb da 08 bf c7 53 85 3f 85 77 5e 40
       -0.39337692 -0.5345885 1.0416192 3.476045
0001d0 33 2d c9 be da 12 22 be bf ab 15 bf b5 d5 59 3e
       -0.39292297 -0.15827504 -0.5846519 0.21272929
0001e0 74 9b 7f be 1c 4c 83 3d c0 23 ee 3c 0a a6 ad 3e
       -0.24961644 0.06411001 0.029069781 0.3391574
0001f0 20 d5 b5 3c 70 4d a2 3d 80 73 81 3b 90 65 bf 3c
       0.022196352 0.07924926 0.0039505363 0.023363858
000200 5a 93 9e 3e b0 dc 8f be 48 8f a5 3d 1f 1e a9 be
       0.30971795 -0.2809806 0.08083969 -0.33030793
000210 3a b6 67 be 5e 0e a1 3e cc 40 28 be b7 3a 5c be
       -0.22628108 0.31456274 -0.16430968 -0.21506773
000220 76 4d a8 be c8 e6 7d 3d 54 3b 7a 3e 50 7c 52 3e
       -0.32871598 0.06198767 0.24436694 0.20555234
000230 15 19 59 bd 61 43 a1 3f e0 74 38 3d cd f4 15 3f
       -0.053002436 1.2598687 0.045033336 0.5857666
000240 a9 6a b1 bf 65 cd ea bf 15 1e 9a c0 6b e9 ad bc
       -1.3860675 -1.8343931 -4.816172 -0.021229466
000250 f5 16 2f 3f 19 3e 86 bf cf 3c f5 be d7 f3 8a bf
       0.68394405 -1.0487701 -0.47897956 -1.0855664
000260 56 da 9c c0 0e 6b 8f 3e 16 a1 0d c0 3c 69 38 3c
       -4.9016523 0.28011364 -2.212957 0.011255559
000270 09 48 4f bc bf f9 4e 3e da 17 78 3e 85 66 bd be
       -0.012651452 0.20212458 0.24227849 -0.3699228
000280 24 cc 06 3e da 3d dc be e9 9b 36 be 42 8d 9b be
       0.13163811 -0.4301594 -0.17832913 -0.3038121
000290 b2 4b 40 bf 28 17 b5 3b 32 1f 1a 3f f1 9a 1e be
       -0.751155 0.005526442 0.6020385 -0.15488793
0002a0 a2 e6 96 3f 86 ee 38 bf 68 d9 d7 3d cd ed e1 3e
       1.1789134 -0.7223896 0.10539514 0.4412674
0002b0 e6 06 9a 3f 26 a1 9f 3f 2c 40 cc bf a2 5b 71 40
       1.2033355 1.2471054 -1.5957084 3.7712178
0002c0 59 67 90 be bf 9c de 3c 88 cd 85 be ac 49 c7 bf
       -0.28203848 0.027174352 -0.2613337 -1.5569358
0002d0 6c 64 81 be 80 3d a4 be c6 56 ab 3e e9 ab 4c be
       -0.25271928 -0.3207817 0.3346464 -0.19987454
0002e0 3d 7f 9d be 7e 55 04 3e 8c 21 06 be e8 00 1f 3d
       -0.30761138 0.12923238 -0.13098735 0.038819224
0002f0 08 38 61 bd 54 2e 21 3e bd eb 40 be 22 78 e9 bd
       -0.054985076 0.15740329 -0.18839927 -0.11399867
000300 3c 36 8c bd 00 36 95 3e 64 85 2e 3e 8e 22 99 3e
       -0.06846282 0.2914276 0.17043072 0.29909176
000310 88 0b e8 3d c0 02 63 3e 52 d0 82 be 00 7d 2b bd
       0.113303244 0.22169018 -0.2554956 -0.041867256
000320 8d 02 a6 be bc 50 a2 3e e8 c9 00 bd 47 78 4f be
       -0.3242382 0.3170222 -0.031442553 -0.20260726
000330 fa 97 5c be 0e 04 e1 bd 0a 71 3e be 03 b9 34 be
       -0.2154235 -0.109871015 -0.18597808 -0.17648701
000340 b8 f9 6d be a0 f1 8d 3c a2 68 4f be 82 f4 76 be
       -0.23239791 0.01732713 -0.20254758 -0.2411671
000350 17 b2 19 be 90 5a 57 3e 5e e0 71 be 92 dd 99 be
       -0.15009342 0.2103064 -0.23620746 -0.30051857
000360 d0 1a 68 be 98 7a ac 3d 73 47 8a be 1c e6 93 be
       -0.22666478 0.084218204 -0.27007636 -0.28886497
000370 17 6f bc be 8c 43 a3 3f 4a ea 1a 3e af 7f db 3e
       -0.36803505 1.2754989 0.15128437 0.42870852
000380 59 54 99 3f e6 10 21 be 48 67 88 be 0c 55 24 3f
       1.1978866 -0.15729102 -0.26641297 0.6419227
000390 f9 9b 96 3f 8d 73 2f 3f a3 5b 10 40 d6 be 2b 3f
       1.1766349 0.6853569 2.255593 0.6708807
0003a0 b4 13 b6 3e 98 2e ab c0 02 83 bb c0 d5 0b 43 c0
       0.35561907 -5.3494377 -5.859742 -3.0475972
0003b0 da a5 f6 3e 9e 13 c0 3e 0c bb ab bf 90 be b9 bd
       0.4817341 0.37514967 -1.3416457 -0.0906955
0003c0 18 90 fa 3e c4 7a a7 be fe 50 a9 bf 2f 7e 34 bf
       0.4893806 -0.3271085 -1.3227842 -0.7050504
0003d0 72 a1 a8 bf 5b 11 2c bf 02 fc 04 3f c1 65 b8 be
       -1.3174269 -0.6721398 0.51947033 -0.36015132
0003e0 0e d4 34 bf 31 38 25 3f 4b 9f 18 3f e7 86 3d 3e
       -0.7063607 0.64538866 0.5961806 0.18508492
0003f0 f8 d0 72 3e b4 44 fc be f0 08 34 40 7a ff 0f 40
       0.23712528 -0.49271166 2.8130455 2.249968

sequential/dense_1/MatMul f4 [16, 32]
000000 38 e2 7a 3e d8 06 41 3d 91 5a ac bf c6 c4 07 3e
       0.24500358 0.047125667 -1.3465139 0.13258657
000010 f7 50 16 bf 7d a4 02 bf ac a7 ec bd c8 a5 bc bf
       -0.5871729 -0.5103224 -0.11555418 -1.4738092
000020 62 5e 08 bf a0 5a b4 3d e8 bd 67 be f7 7b e3 bf
       -0.53269017 0.08806348 -0.22631037 -1.7772206
000030 9a 82 a7 be a1 3f 29 3f 21 41 94 3e 87 26 f1 3c
       -0.3271683 0.66112715 0.2895594 0.029437317
000040 e3 5d f4 bd 99 3d ae be 32 ad 18 3e d0 38 86 bc
       -0.1193197 -0.3403137 0.14909819 -0.016384512
000050 a2 c3 00 be e0 81 b1 be 43 2b a9 3e 72 8b dd bd
       -0.12574628 -0.346694 0.3304082 -0.10817613
000060 a0 c1 36 bd f9 ff 60 3e 88 a2 e5 be cc 11 6e be
       -0.04461825 0.21972646 -0.44850564 -0.23248976
000070 94 74 27 bf 8c c0 0e 3f f3 b0 9a 3e 0d 31 b0 3e
       -0.6541226 0.55762553 0.30213127 0.34412423
000080 d8 a0 89 bd a9 fe b0 3e e4 11 e4 3c bc 88 ca bd
       -0.06720132 0.3456929 0.027840562 -0.09889361
000090 cd 42 73 bd 50 ac 0e 3d 90 ce 9e 3c 05 e9 d2 3c
       -0.059389878 0.0348323 0.019385606 0.025745878
0000a0 a9 62 2a be e4 b6 a9 bd 39 be 4c be 76 77 69 3f
       -0.16639198 -0.08286837 -0.19994439 0.9119791
0000b0 bf b3 be bf 19 49 02 bd 40 0b 0f bf 16 d3 8c bd
       -1.4898604 -0.031807993 -0.5587654 -0.06876199
0000c0 3f b8 af be 7d df 07 be 90 0f 9b bc 07 aa 95 3e
       -0.34320256 -0.13268848 -0.01892832 0.29231283
0000d0 4f 4b e2 3e ba 95 98 be c9 8d 89 be eb 63 47 be
       0.4419808 -0.29801732 -0.26865986 -0.1947171
0000e0 43 a5 03 be 39 88 c3 bf f8 b4 cc bc 14 55 32 be
       -0.12856011 -1.5275947 -0.024988636 -0.17415267
0000f0 d3 91 ac 3f 28 0c 7e 3f fb 1b a7 be c7 a7 a3 3e
       1.3482002 0.992373 -0.32638535 0.3196394
000100 08 1f 34 be d2 b5 5b 3e a9 8e 6b 3e 69 3d 9b 3e
       -0.17589962 0.21456078 0.2300364 0.3032029
000110 af b0 96 3e 83 04 bb bf e0 a1 89 bc 22 0b 9a be
       0.29431674 -1.4610752 -0.01680082 -0.3008662
000120 c2 54 97 3d 2a 72 61 be 42 9e 39 3e d4 49 89 be
       0.07389213 -0.22016206 0.18126777 -0.2681414
000130 15 5a 97 be 55 cf f5 3d 6b 0a a3 be 58 e7 53 bf
       -0.29560915 0.12002436 -0.31843886 -0.8277488
000140 85 1f 04 3f 46 99 2b be 27 c9 95 3e 80 9c 02 3b
       0.51610595 -0.16757688 0.2925503 0.0019929707
000150 86 72 bc bf bc be 43 be ee ec 38 3e f3 dc a6 be
       -1.472245 -0.19115728 0.18059132 -0.32590446
000160 a6 99 58 3e 31 6a 31 bd 17 a7 2a be 0c 55 89 bd
       0.21152362 -0.043314163 -0.16665302 -0.067056745
000170 95 89 7b 3d ac cb f4 be 46 f0 7f 3e 80 80 18 bd
       0.061410505 -0.4781164 0.24994001 -0.037231922
000180 0e 73 20 bd 62 11 71 3e 81 df 78 be f0 e6 a8 be
       -0.039172225 0.23541787 -0.2430401 -0.3298869
000190 93 6e d7 3e 73 fc e2 3d 20 0f 21 bd 88 d7 af 3e
       0.4207655 0.11083307 -0.039321065 0.34344125
0001a0 cf a3 d0 3c dc ab d9 3d f8 66 53 be 88 b6 95 3f
       0.025468735 0.10628483 -0.20644748 1.1696329
0001b0 39 c7 9d 3e a8 7a aa bd 4d 5e e5 be 1a 02 3d bf
       0.30816057 -0.08324176 -0.44798508 -0.7383133
0001c0 28 fa 93 bc bc 5c d8 bd b8 80 a4 3e 00 25 17 bb
       -0.01806362 -0.10564563 0.32129455 -0.0023062825
0001d0 6f 47 81 3e b7 38 50 be cc 34 b7 bd c8 79 42 bd
       0.25249812 -0.20334135 -0.08945617 -0.04747942
0001e0 c2 77 68 3e 25 48 11 be 20 f4 21 3f 2f 3f 39 3e
       0.22701934 -0.14187677 0.6326313 0.18090509
0001f0 b4 48 9b 3e 16 14 1d 3f 00 73 44 bb f6 24 3a 3e
       0.30328906 0.61358774 -0.0029975772 0.18178162
000200 fe 1a 49 3e 5e 70 1e 3e 4c 7c 20 be be d4 32 3e
       0.19639203 0.15472552 -0.15672415 0.17463967
000210 c1 5c 8f bf a0 cb 87 bd be 73 79 be 74 d4 9f be
       -1.1200181 -0.06630635 -0.24360558 -0.31216776
000220 17 b3 85 bf e2 0e 47 3e 90 0a b0 bc a1 34 06 bf
       -1.0445279 0.19439271 -0.021489412 -0.52424055
000230 04 81 0d bf 9c bc ed 3e 5e 24 cf be 84 64 d4 be
       -0.5527499 0.4643296 -0.40457433 -0.41482937
000240 98 83 a5 be 58 9c e3 3d d6 fb 08 3e 2a 24 21 3e
       -0.3232696 0.111138046 0.13377318 0.15736452
000250 c8 ae bf 3e f8 6f 82 bd 10 f8 b5 bd a5 d6 b4 3e
       0.37438035 -0.063690126 -0.08885205 0.3532001
000260 c0 93 5c 3c 9e ce 0e bf 06 45 ac 3d fc a6 fd 3d
       0.013462961 -0.5578402 0.08411603 0.12385365
000270 0d e6 2a bf 62 4c 26 bf 10 9a 04 bd d5 74 8c be
       -0.6675728 -0.649603 -0.032373488 -0.27432886
000280 33 31 a1 3d 56 48 65 be 90 63 a3 bd ae 89 2b 3e
       0.07870712 -0.22390875 -0.079779744 0.1675174
000290 a1 be 84 3e be 68 55 3f 44 f4 f2 3d c0 3f c8 be
       0.25926688 0.8336295 0.11862996 -0.39111137
0002a0 40 00 a0 3e a7 57 b4 3e 03 1a 97 3e 76 4e 0a be
       0.3125019 0.35223123 0.29512033 -0.13506493
0002b0 e1 4f f2 3e da 9a 15 3e 2d 20 72 3d 65 96 ec bd
       0.47326568 0.14609852 0.059112716 -0.11552123
0002c0 27 2d b3 3d ae ef aa be 81 60 23 be a0 fa 8d be
       0.087488465 -0.33385986 -0.15954782 -0.27730274
0002d0 37 3f 89 3d 89 e9 51 3d ba 86 52 3e 43 95 a5 be
       0.067015104 0.051248107 0.20559207 -0.3234044
0002e0 d8 41 ec bd 74 4e 08 be a9 b3 ad bf e5 b8 5d be
       -0.11535996 -0.13311177 -1.3570453 -0.21652563
0002f0 85 67 3a 3f c1 2a c2 bf fb 5b 8f 3e 94 2b 81 3d
       0.7281421 -1.5169297 0.27999863 0.0630714
000300 1d 96 42 3e 11 9f a8 3e f2 c0 94 bf 6a 32 65 3e
       0.19002576 0.32933858 -1.1621382 0.22382513
000310 ee b1 2b 3e 94 50 7b bf 8e 13 49 3e d2 08 d0 3e
       0.16767094 -0.9816983 0.19636366 0.4063173
000320 3f 60 41 bd 6a c3 49 3e 9d 7a b2 3e 04 c8 ea 3e
       -0.047210928 0.19703451 0.34859172 0.45855725
000330 7a c5 f7 3e e3 9e 13 bf 15 85 89 3e 14 04 ce 3e
       0.4839285 -0.57664317 0.26859346 0.40237486
000340 ea c7 b1 bd ba e7 7e 3e aa b7 96 3e 2c 54 12 3e
       -0.08680709 0.24893084 0.29437 0.14289922
000350 24 8d 32 bf ac 31 e3 3d a2 46 3c 3e e4 bd 85 3d
       -0.69746614 0.110934585 0.1838632 0.065303594
000360 17 13 af 3e d9 75 1c 3e 7d 2f 61 be 4c c8 ff 3c
       0.34194252 0.1527933 -0.21990772 0.031223439
000370 5b 67 e9 be b0 2a b2 3e a8 61 80 bd ea 36 59 3e
       -0.45586666 0.34798193 -0.062686265 0.21212354
000380 98 26 b0 be 21 5d 83 3e 69 26 bc bd 26 65 9a be
       -0.34404445 0.2565699 -0.09187014 -0.30155295
000390 e5 cb 06 be 4e 70 22 c0 88 7b a8 3d b3 64 1a be
       -0.13163717 -2.5381045 0.08226687 -0.15077476
0003a0 f3 e7 36 bd 00 65 59 bd 43 0f 90 3e 3b ab 64 3e
       -0.044654798 -0.053074837 0.28136644 0.22330944
0003b0 57 da e9 be 46 91 62 be 8b 68 c6 3c 53 9e 49 3e
       -0.45674393 -0.2212573 0.024219772 0.19689302
0003c0 04 e6 08 3f cb e1 80 3e 0f d5 44 be db f5 49 be
       0.53475976 0.25172266 -0.192219 -0.19722693
0003d0 05 27 29 3f 7f 75 7a 3e 84 4d 5b be a5 3b 34 be
       0.66075164 0.24458884 -0.21416289 -0.17600878
0003e0 9d 1b 92 3e df a3 2c be 85 52 c9 3e 58 9c 2d be
       0.28536692 -0.16859387 0.3932077 -0.16954172
0003f0 fd 01 90 3f 6b 3c 86 3e a0 ae 94 3d 18 bf a3 3d
       1.1250607 0.2621797 0.072598696 0.079954326

sequential/dense_2/MatMul f4 [1, 16]
000000 6c 90 35 3f 90 53 ae 40 77 9c 82 be f0 76 a5 be
       0.70923495 5.4477005 -0.25509998 -0.32317305
000010 80 19 02 40 ef 03 d8 3e cf 1c 8a be 65 a9 80 3e
       2.0328064 0.421905 -0.26975104 0.25129238
000020 cd ce 00 3f 11 0f 00 c0 f3 8d 9d 3f f9 ad 8c 3e
       0.5031555 -2.0009196 1.2308944 0.2747648
000030 a7 36 45 be d7 5d e0 3e ad 7d 2b bf 8f 6b bf be
       -0.1925913 0.43821594 -0.6698864 -0.37386748
